data.pth (torch, 7199 bytes, 6 tensors)

l1.weight f4 [8, 99]
0	0x3d784c0a	0.06061939
1	0x3fafc9e5	1.3733488
2	0xbc70c690	-0.0146957785
3	0x3cacc020	0.021087706
4	0xbc2e9c40	-0.01065737
5	0x3e8576f4	0.26067317
6	0x3e51bdaa	0.20482507
7	0x3c4b89e0	0.012423009
8	0x3d32456a	0.04352323
9	0x3fc3f439	1.5308906
10	0x3edc4d6c	0.43027818
11	0x3fa442ac	1.2832847
12	0x3fb34686	1.4005897
13	0xbd9316aa	-0.07182057
14	0xbede3f08	-0.43407464
15	0xbedf6625	-0.43632618
16	0xbedf9027	-0.43664667
17	0xbede430d	-0.4341053
18	0xbedfc911	-0.4370809
19	0xbedf576a	-0.4362138
20	0xbe691642	-0.22762397
21	0xbedf83bd	-0.43655196
22	0x3ca2afbc	0.019859187
23	0x40614f7d	3.5204766
24	0x3c45aad8	0.012064658
25	0x3e033ee6	0.12816963
26	0x3ffaf708	1.9606638
27	0x3ce52bd4	0.027975
28	0xbcaed6a0	-0.021342576
29	0xbcdac95e	-0.026707347
30	0x4008fd8a	2.1404748
31	0xbd530cd2	-0.0515259
32	0x3cb9dffc	0.022689812
33	0x3d6f5623	0.058431756
34	0x3cdf3f3c	0.027251832
35	0xbf2dd303	-0.67900103
36	0x3dbf30c3	0.093354724
37	0xbdb1c7dd	-0.08680699
38	0xbf094a56	-0.5362905
39	0xbf2d1570	-0.67610836
40	0xbf3778bd	-0.71668607
41	0x3f8d05ff	1.1017455
42	0xbf115718	-0.5677352
43	0xbdae39f3	-0.08507147
44	0x3d52d3e2	0.0514716
45	0xbef78cc0	-0.4834957
46	0xbd5a05bb	-0.05322812
47	0xbf4c07cc	-0.796994
48	0x3e31ff98	0.17382658
49	0xbead4b21	-0.3384638
50	0x3e2caac6	0.1686202
51	0xbc94fcbe	-0.018186923
52	0xbe3c1184	-0.18366057
53	0xbdbd227b	-0.09235092
54	0xbd169643	-0.036764394
55	0xbee55b59	-0.44796255
56	0xbf648888	-0.8927083
57	0x3e81a1e7	0.25318834
58	0xbed084bf	-0.40726277
59	0x3ebfc5c6	0.37455577
60	0xbeb338c9	-0.3500426
61	0xbdac8783	-0.08424284
62	0x3dae8670	0.08521736
63	0xbe9b78d1	-0.30365613
64	0xbf41e612	-0.75741684
65	0x3e7c32f7	0.24628817
66	0x3f7a59ea	0.9779345
67	0x3ea39fde	0.31957906
68	0x3f292cb7	0.66083854
69	0xbd2910f9	-0.041275952
70	0x3ebbd53e	0.36686128
71	0x3f7d3ee4	0.9892409
72	0x3d6c5396	0.0576969
73	0x3c8b68b2	0.017017696
74	0x3ea733e6	0.32656783
75	0x3f7945fa	0.973724
76	0x3b27c0a0	0.0025596991
77	0xbd02368b	-0.031790297
78	0x3eb510e7	0.35364458
79	0xbda88ffa	-0.08230586
80	0x3e830f61	0.2559767
81	0x3d9da696	0.07697789
82	0x3e9d3a92	0.30708748
83	0xbcafd8f4	-0.021465756
84	0x3cfdea7b	0.030995598
85	0x3db4b6f5	0.08823959
86	0xbe5049e0	-0.20340681
87	0x3e7ed157	0.24884544
88	0x3bb0cc90	0.0053954795
89	0x3f898022	1.0742228
90	0x3f0edded	0.5580738
91	0x3f1ed7ef	0.6204824
92	0x3f041aef	0.516036
93	0x3f26df5e	0.6518458
94	0xbd4adcb7	-0.049526896
95	0xbec54fe5	-0.38537517
96	0xb966c0a7	-0.00022006278
97	0xbebe117b	-0.37122712
98	0x3ea7ae69	0.32750252
99	0x3d7a3da2	0.061093934
100	0x401036c4	2.2533426
101	0x3bd81950	0.0065948144
102	0xbd3d641e	-0.046238057
103	0xbdad7f42	-0.08471538
104	0x3eb7016d	0.35743275
105	0x3d7e8508	0.062138587
106	0x3d50622a	0.050874867
107	0x3d38b0ca	0.045090474
108	0x3ff2eedc	1.8979144
109	0x3ffd2885	1.977799
110	0x400e78cb	2.2261226
111	0x401200a7	2.2812898
112	0x3d89253d	0.06696556
113	0xbee6173d	-0.44939604
114	0xbee5e845	-0.4490377
115	0xbee5fea7	-0.44920847
116	0xbee63b62	-0.4496718
117	0xbee5e391	-0.44900182
118	0xbee603db	-0.44924816
119	0xbe58aeff	-0.21160506
120	0xbee5d0ef	-0.44885966
121	0x3d121972	0.035668798
122	0x401bbffa	2.4335923
123	0xbd8b6542	-0.06806423
124	0x3d47be49	0.048765454
125	0x40020b79	2.0319502
126	0x3d6abd9a	0.057309724
127	0x3db52d5d	0.08846543
128	0x3e16a17f	0.14710043
129	0x3ffe8801	1.9885255
130	0x3cf78934	0.03021679
131	0xbd4b050b	-0.049565356
132	0x3d2eefbf	0.04270911
133	0x3d4cd5be	0.050008528
134	0x3fd1e220	1.6397133
135	0x3ca396ac	0.019969307
136	0xbd5abbb5	-0.053401668
137	0x3fdb8a00	1.7151489
138	0x3ef38c81	0.47568133
139	0x3efca6a9	0.49345902
140	0x3fd624e3	1.6730007
141	0x3d2ce8a0	0.042214036
142	0x3db110f9	0.086458154
143	0xbc00dd80	-0.00786531
144	0x3ec66221	0.3874674
145	0x3d2d3a1e	0.042291753
146	0xbf9ce479	-1.2257224
147	0x3ddeca60	0.10878444
148	0xbec8aee1	-0.39195922
149	0x3eac69ce	0.33674473
150	0xbda84713	-0.08216681
151	0x3bb8b700	0.0056370497
152	0x3ccb0e34	0.024787046
153	0x3e0d6a7e	0.13810155
154	0xbeac0f6f	-0.33605525
155	0xbf877b75	-1.0584551
156	0x3e546d7d	0.20744891
157	0xbe84b18a	-0.25916702
158	0x3f3bb2cc	0.733197
159	0xbe88fa64	-0.26753533
160	0x3d91de19	0.0712244
161	0x3e47da8b	0.19516961
162	0xbe69c10a	-0.22827545
163	0xbf87d7d7	-1.0612744
164	0x3d97876d	0.07398877
165	0xbed25776	-0.41082352
166	0x3f13b7ec	0.5770252
167	0xbeee8962	-0.4658919
168	0xbd4162cb	-0.047213357
169	0x3d8f1a35	0.069874205
170	0xbeecdca4	-0.46262085
171	0x3da51e7f	0.08062457
172	0x3db92396	0.090399906
173	0x3e065b3c	0.1312074
174	0xbedbf094	-0.42956984
175	0x3d65e4e6	0.056126498
176	0x3e5c6f91	0.21526934
177	0x3d4f4b83	0.050609123
178	0x3dc5cb89	0.09657962
179	0x3f1a44f6	0.60261476
180	0x3e1b784d	0.1518261
181	0x3e23d6cb	0.15999906
182	0xbd8e5d3d	-0.069513775
183	0x3e308fb3	0.17242317
184	0x3d73b9fa	0.059503533
185	0xbe6d5161	-0.23175575
186	0x3e1237c4	0.14279085
187	0x3b550320	0.0032503083
188	0x3fdc182b	1.7194875
189	0x3e034e57	0.12822853
190	0x3af6152e	0.0018774623
191	0x3d956d8f	0.07296287
192	0x3d97d3e2	0.0741346
193	0xbc06b790	-0.008222476
194	0xbf3e1f3d	-0.74266416
195	0x3e53b29d	0.20673604
196	0xbf333ad7	-0.7001166
197	0x3c6800cd	0.014160347
198	0x3c4e5280	0.012592912
199	0xbcd47b92	-0.02593783
200	0x3db8329d	0.08994029
201	0xbd189a9c	-0.037256822
202	0x3dc3c205	0.09558491
203	0xbf1eae67	-0.61984867
204	0x3ecf53fc	0.40493762
205	0xbd885bf7	-0.06658166
206	0xbdab4034	-0.08361855
207	0x3fcbe9e1	1.5930749
208	0xbc90ad0f	-0.017660646
209	0x3f7afb7a	0.9803997
210	0xbccde1ad	-0.025132025
211	0x3d5c2e26	0.053754948
212	0xbdba5524	-0.090982705
213	0x3f71ec38	0.94501066
214	0xbd665456	-0.056232773
215	0xbd8c0c19	-0.06838245
216	0xbc997909	-0.018734472
217	0xbcba4f5c	-0.02274292
218	0x3eca9933	0.39570007
219	0x3f828486	1.0196693
220	0xbd80fd26	-0.06298284
221	0xbccca456	-0.024980705
222	0xbd9033be	-0.07041119
223	0x3eaf472e	0.34233993
224	0xc02fdae4	-2.747735
225	0x3d81030b	0.062994085
226	0xbb1606c0	-0.0022892207
227	0x3e7314f5	0.23738463
228	0xc022e987	-2.5455034
229	0xbd602790	-0.05472523
230	0x3da4728f	0.08029663
231	0x3ed2f200	0.41200256
232	0x3d8d8977	0.06910985
233	0xbc89b500	-0.01680994
234	0x3d885133	0.066561125
235	0xbdc8ad88	-0.097987235
236	0xbaa1ad99	-0.0012335061
237	0xbbe8c0ff	-0.007103085
238	0x3c82e5aa	0.015978653
239	0xbc3c8230	-0.0115056485
240	0x3ee93202	0.45545965
241	0x3cdb2e4c	0.026755475
242	0x3dc81e2b	0.09771379
243	0x3f6385ab	0.88875836
244	0x3e925c6a	0.2858613
245	0x3f4a18dd	0.7894419
246	0x3e7d9513	0.24763899
247	0x3f03c1c0	0.51467514
248	0xbe79e33c	-0.2440309
249	0x3eb9153a	0.36149007
250	0x3ed92b6a	0.42415935
251	0xbd013c20	-0.03155148
252	0x3eb33378	0.35000205
253	0x3ea536e7	0.3226845
254	0x3f3a96bd	0.7288626
255	0x3eb28eda	0.34874612

l1.bias f4 [8]
0	0x3edccacf	0.4312348
1	0x3ee33c71	0.4438205
2	0x3c14f756	0.009092173
3	0x3f1ab2de	0.6042918
4	0x3f5d00a4	0.863291
5	0x3f081e65	0.5317138
6	0x3f080270	0.5312872
7	0xbb3d410d	-0.0028877885

l2.weight f4 [8, 8]
0	0xbf969a9d	-1.1765934
1	0x3ecfe2fa	0.40602857
2	0xbf0b1293	-0.54325217
3	0xbeafd9af	-0.34345767
4	0x3f1d1063	0.6135313
5	0xbcca51bc	-0.024697177
6	0x3f44207f	0.76612085
7	0xbf3c8807	-0.7364506
8	0x3f938e1b	1.1527742
9	0x3ff1a0df	1.8877219
10	0x3f7117f0	0.9417715
11	0xbf0db1b3	-0.5534927
12	0x3f0f6bef	0.5602407
13	0x3e5981a3	0.21240859
14	0xbee7f471	-0.45303681
15	0x3fd7efaa	1.6870015
16	0x3c9cef2b	0.019157013
17	0xbf1ef188	-0.620873
18	0xbea5ed61	-0.32407668
19	0x3fb0acc7	1.3802727
20	0x3f29731d	0.66191274
21	0x3fc0b8ef	1.5056437
22	0x3fc70dbc	1.5551066
23	0x3e32c81d	0.1745915
24	0x3e34b9c4	0.17648989
25	0xbf4bcbe8	-0.7960801
26	0xbefc09f2	-0.49226338
27	0x3eba841a	0.3642891
28	0x3f9984ff	1.1993712
29	0xbf010afa	-0.50407374
30	0x3f87f88d	1.0622727
31	0x3dbaa22d	0.09112964
32	0x3dba44a7	0.09095126
33	0xbe9e412d	-0.309091
34	0xbea81151	-0.3282571
35	0x3e29739d	0.16548009
36	0x3e2a28f0	0.16617179
37	0xbeb485e1	-0.35258391
38	0xbe48ed6d	-0.19621821
39	0xbe4b3978	-0.19846141
40	0xbf706be0	-0.93914604
41	0xbf6a22e0	-0.91459465
42	0x3fd778ba	1.6833718
43	0x3fa00263	1.2500728
44	0xbedff7cf	-0.4374375
45	0xbe93c11a	-0.28858262
46	0x3fa0647c	1.2530665
47	0x3fc5678c	1.5422225
48	0x3f87e8ea	1.0617955
49	0x3f6c78d7	0.92371887
50	0xbda1dd65	-0.07903556
51	0x3e8208c2	0.25397307
52	0x3f7d0a2b	0.9884364
53	0xbf98d323	-1.1939434
54	0xbe9929f6	-0.29914826
55	0x3edb07a8	0.4277928
56	0xbe36213b	-0.17786114
57	0x3fc9cb7b	1.5765222
58	0x3dd2f2c0	0.10300207
59	0xbe9aa0ad	-0.3020071
60	0x3f8e2402	1.1104739
61	0x3e9b3f99	0.3032196
62	0x3f17b6fb	0.5926358
63	0xbe9d8779	-0.3076742

l2.bias f4 [8]
0	0xbdb2f762	-0.08738591
1	0x3f162e8a	0.5866476
2	0x3f7ac12d	0.9795101
3	0x3f3b7b66	0.73235166
4	0xbe5a0fe3	-0.21295123
5	0x3ea29cc4	0.31760228
6	0x3e0ed196	0.13947138
7	0x3ecb59cd	0.3971695

l3.weight f4 [8, 8]
0	0xbfbb530c	-1.4634719
1	0x3f036722	0.51329243
2	0x3eb161ae	0.34644836
3	0xbe3afcb9	-0.18260469
4	0x3e49919c	0.19684452
5	0xbf7485b4	-0.95516515
6	0xbfc8631c	-1.5655246
7	0x3ef983e0	0.48733425
8	0x3e6c5048	0.230775
9	0xbfac5b55	-1.3465372
10	0x3f1feb8b	0.62468785
11	0x3f451e80	0.76999664
12	0xbe398a83	-0.18119244
13	0x3f068524	0.52546906
14	0xbfabd009	-1.3422862
15	0xbe0d3097	-0.13788067
16	0xbfaa35b7	-1.3297642
17	0xbddc7b8e	-0.10765754
18	0xbe1be2bc	-0.15223211
19	0x3f2d8e47	0.67795223
20	0xbea19c1b	-0.31564412
21	0xbfbcf083	-1.4760898
22	0x3eccdd82	0.40012747
23	0x3eb7ec38	0.35922408
24	0x3f88f44a	1.0699551
25	0xbe5cff31	-0.21581723
26	0xbe9fc75d	-0.3120679
27	0x3ed902a9	0.42384842
28	0x3e800f06	0.25011462
29	0x3ddd7fd9	0.10815401
30	0xbe2891fc	-0.16461939
31	0x3e9e2052	0.30884033
32	0xc0510205	-3.2657483
33	0x3e506c0a	0.20353714
34	0xbfe24104	-1.7676091
35	0xbfa0209e	-1.2509954
36	0xbeb7ad17	-0.35874245
37	0x3f4ef415	0.8084119
38	0xbf40d97a	-0.7533184
39	0xbfe2260d	-1.7667862
40	0xc0c4a57a	-6.1452
41	0x3f0b2a64	0.5436156
42	0xbfe22753	-1.7668251
43	0xbef24771	-0.4732013
44	0xbeaffe47	-0.34373686
45	0xbd8aafd9	-0.067718215
46	0x3f42ba03	0.7606508
47	0xc0201078	-2.5010052
48	0xc088843f	-4.2661433
49	0x3f03c081	0.5146561
50	0xc04a3f5c	-3.1601171
51	0xbf78edb5	-0.9723771
52	0x3e9c0bc2	0.3047772
53	0xbf34518c	-0.7043693
54	0x3f321233	0.6955902
55	0x3f0aab28	0.54167414
56	0xc0b6d7bb	-5.7138343
57	0xbdddc3e9	-0.108283825
58	0x3ee3db52	0.44503266
59	0xc008e9fe	-2.1392817
60	0x3e3550f1	0.17706658
61	0x3f1a57b8	0.602901
62	0xbf1fe01b	-0.6245133
63	0xc067166e	-3.610744

l3.bias f4 [8]
0	0x3f465055	0.77466327
1	0x3edcf98f	0.43159148
2	0xbe5c7811	-0.21530177
3	0xbe1f584a	-0.15561023
4	0xbe6a2b3b	-0.22868054
5	0xbe83528b	-0.25648913
6	0xbee76a77	-0.45198414
7	0xbe5feaab	-0.21866862
