data.pth (torch, 6623 bytes, 6 tensors)

l1.weight f4 [8, 87]
0.033951513 -0.09898658 -0.04287357 -0.09710303 0.41110954 -0.19764517 -0.101786025 -0.057479177
-0.08100773 -0.20362605 -0.28105146 -0.032044284 -0.02873972 0.1682305 1.2644163 0.05568544
0.0569473 0.15849511 1.3502483 0.077126615 0.09800761 0.21312633 -0.0976834 0.40424514
0.040307187 0.02138903 0.4891704 0.35221973 0.26504162 0.13701646 -0.06496798 -0.0542166
-0.008886397 -0.12912253 0.2889457 -0.4632547 -0.14059855 -0.23010342 0.5010125 -0.09438282
-0.049023375 0.03776986 0.25202447 -0.2719531 -0.59596354 -0.089606635 -0.33177847 0.47278196
-0.163206 -0.013271987 0.20941061 -0.32224452 -0.43597716 -0.0826638 -0.6603531 0.33648676
-0.18678507 -0.07069496 -0.18627997 -0.6953042 -0.0828207 0.17770857 -0.15411665 -0.70126444
-0.06273302 0.3145157 -0.0071034348 0.052379645 0.29160416 0.23749205 -0.06999002 -0.05295194
0.31259358 -0.008669145 0.10590309 -0.08744748 0.04830151 0.14693348 -0.3073938 -0.20449795
-0.15572082 -0.2529088 0.07135285 -0.5560581 0.1428793 -0.530042 -0.12238694 0.06871276
0.06851321 -0.033511803 -0.03338532 -0.4699291 0.38488042 0.0031732991 -0.095164336 -0.031206071
-0.090914935 -0.056169745 0.053855993 -0.046294857 -0.06937722 1.0722156 -0.00864546 -0.045833476
0.07359445 1.093049 0.056096427 0.046242483 0.131174 -0.03850531 -0.2868048 -0.0074692145
0.011836283 -0.2646112 -0.32317233 -0.3212994 0.58472276 -0.10011541 0.0013022795 0.063637756
-0.013915508 0.089734994 0.2651892 0.29134503 0.07181058 -0.48915833 -0.14956956 -0.048807003
-0.03860733 -0.003031883 0.054149706 0.19538097 0.32885692 0.15207909 -0.105260424 0.19641924
0.04915943 0.07600256 0.00889028 0.19288443 0.39976346 0.54660606 -0.10396228 0.43062493
-0.07185458 0.3242489 0.6736392 0.041866027 0.0063108946 0.31825387 0.645945 0.0535549
0.02722875 0.41907018 0.017421834 -0.111220516 0.119233124 0.346162 -0.023159146 -0.013406653
-0.047388338 -0.06439284 0.4142918 0.017297454 0.6150021 0.66205406 0.7131727 0.7734178
0.62740344 0.0041098 0.60518324 0.05032002 0.47224212 0.3117003 0.0933241 -0.053875107
-0.036071725 -0.070039615 -0.04862428 -0.16496025 -0.03800512 -0.050200652 -0.16890949 -0.1133251
-0.14079328 0.10397828 0.09628203 0.16291508 1.1083443 -0.009331711 -0.0770117 0.22170529
1.1316905 -0.075743124 0.09532524 0.32686514 0.08466906 -0.6019579 -0.08963989 0.047094755
-0.7025271 -0.6284983 -0.60856605 0.8889784 -0.19016981 0.031648494 -0.087946996 0.019558216
0.17132343 -0.517802 -0.07020319 -0.27042016 -0.052939825 -0.0752227 -0.07731687 -0.09285666
0.23213187 -0.44444048 -0.54781973 -0.1666079 -0.40931773 0.6055389 -0.28390494 0.04552146
0.18868329 -0.25679526 -0.5606688 -0.19526245 -0.07458552 0.6027848 0.31109837 0.065951504
-0.1653503 -0.07953551 0.026740246 0.16611864 -0.15991656 -0.13573097 0.097569294 0.26451477
-0.10159666 -0.091093324 0.45816097 0.16944377 -0.07290043 0.093115665 0.20106483 0.08002598
0.17812788 -0.15825348 0.09258481 0.9781237 -0.17676139 -0.09299557 -0.035160396 -0.00981738
00000000: be10 0b3d 7ab9 cabd 329c 2fbd f4dd c6bd
00000010: f37c d23e 7f63 4abe 3175 d0bd 496f 6bbd
00000020: 61e7 a5bd 5983 50be fae5 8fbe de40 03bd
00000030: 906f ebbc 9e44 2c3e 65d8 a13f 6a16 643d
00000040: 9241 693d 8b4c 223e f0d4 ac3f 8ff4 9d3d
00000050: 37b8 c83d ca3d 5a3e 3c0e c8bd 38f9 ce3e
00000060: 2619 253d 0c38 af3c 8b74 fa3e 2556 b43e
00000070: 89b3 873e 0b4e 0c3e ef0d 85bd 3a12 5ebd
00000080: 4098 11bc b238 04be b1f0 933e b82f edbe
00000090: 11f9 0fbe 3ba0 6bbe 5b42 003f c84b c1bd
000000a0: bccc 48bd 92b4 1a3d 5a09 813e 703d 8bbe
000000b0: 1191 18bf af83 b7bd dede a9be 7a10 f23e
000000c0: 791f 27be c072 59bc bc6f 563e 3cfd a4be
000000d0: 6638 dfbe a34b a9bd e70c 29bf fe47 ac3e
000000e0: 9644 3fbe 85c8 90bd 2dc0 3ebe 75ff 31bf
000000f0: e69d a9bd 3cf9 353e c1d0 1dbe 1186 33bf
00000100: 2b7a 80bd 3408 a13e eec3 e8bb 0a8c 563d
00000110: 244d 953e 1e31 733e ed56 8fbd 22e4 58bd
00000120: 440c a03e 0809 0ebc b8e3 d83d aa17 b3bd
00000130: ced7 453d bb75 163e b862 9dbe e967 51be
00000140: 4775 1fbe 437d 81be 7121 923d d359 0ebf
00000150: f44e 123e d5b0 07bf 01a6 fabd 47b9 8c3d
00000160: a750 8c3d ac43 09bd 0cbf 08bd 8c9a f0be
00000170: 0c0f c53e 20f7 4f3b 85e5 c2bd e0a3 ffbc
00000180: 9c31 babd 3f12 66bd 1a98 5c3d ad9f 3dbd
00000190: a515 8ebd 5c3e 893f b0a5 0dbc e2bb 3bbd
000001a0: b0b8 963d 08e9 8b3f 5ec5 653d c268 3d3d
000001b0: 7a52 063e beb7 1dbd 14d8 92be 50c0 f4bb
000001c0: f8ec 413c 1f7b 87be d876 a5be 5b81 a4be
000001d0: 64b0 153f 4f09 cdbd 40b1 aa3a 8354 823d
000001e0: dffd 63bc fbc6 b73d e1c6 873e 2d2b 953e
000001f0: 6d11 933d f672 fabe c328 19be dae9 47bd
00000200: b822 1ebd 8eb2 46bb 15cc 5d3d f311 483e
00000210: ef5f a83e 9fba 1b3e c792 d7bd 2022 493e
00000220: 665b 493d 3ba7 9b3d 89a8 113c 7f83 453e
00000230: ccad cc3e 60ee 0b3f 2dea d4bd df7a dc3e
00000240: 7e28 93bd f403 a63e 9e73 2c3f b67b 2b3d
00000250: 9fcb ce3b 2cf2 a23e a75c 253f 625c 5b3d
00000260: d40e df3c 5e90 d63e 3cb8 8e3c 95c7 e3bd
00000270: 7f30 f43d 253c b13e 40b8 bdbc 94a7 5bbc
00000280: 461a 42bd 65e0 83bd 0e1e d43e 64b3 8d3c
00000290: c770 1d3f 607c 293f 7c92 363f b5fe 453f
000002a0: 839d 203f 80ab 863b 4aed 1a3f 5e1c 4e3d
000002b0: b8c9 f13e 2f97 9f3e b520 bf3d 25ac 5cbd
000002c0: f2bf 13bd ee70 8fbd 412a 47bd 57eb 28be
000002d0: 42ab 1bbd 339f 4dbd 9cf6 2cbe fd16 e8bd
000002e0: 1d2c 10be 91f2 d43d 832f c53d 36d3 263e
000002f0: 3ade 8d3f 08e4 18bc 4fb8 9dbd b606 633e
00000300: 3cdb 903f 361f 9bbd e139 c33d de5a a73e
00000310: f966 ad3d ea19 1abf 1e95 b7bd 6ee6 403d
00000320: d1d8 33bf 44e5 20bf fcca 1bbf 1794 633f
00000330: e0bb 42be daa1 013d 8e1d b4bd 8d38 a03c
00000340: 696f 2f3e ac8e 04bf b1c6 8fbd 8374 8abe
00000350: 6ed7 58bd 5c0e 9abd 4f58 9ebd a22b bebd
00000360: fab3 6d3e b48d e3be ea3d 0cbf 439b 2abe
00000370: 1892 d1be 9904 1b3f fd5b 91be b674 3a3d
00000380: 3136 413e ab7a 83be fe87 0fbf e1f2 47be
00000390: 4bc0 98bd 1b50 1a3f 4948 9f3e 9511 873d
000003a0: 9751 29be 83e3 a2bd 5c0e db3c 011b 2a3e
000003b0: 2bc1 23be 0ffd 0abe 69d2 c73d 7b6e 873e
000003c0: e911 d0bd 238f babd 1394 ea3e ab82 2d3e
000003d0: d24c 95bd 6db3 be3d f0e3 4d3e a9e4 a33d
000003e0: 2867 363e 330d 22be 1b9d bd3d 5166 7a3f
000003f0: f000 35be 7674 bebd 5904 10bd 14d9 20bc

l1.bias f4 [8]
0.9181098 -0.011855755 0.67537826 0.76434356 0.21970621 0.54765075 0.41030648 0.18654104
00000000: 3e09 6b3f a43e 42bc 97e5 2c3f 05ac 433f
00000010: aafa 603e d732 0c3f b113 d23e 9d04 3f3e

l2.weight f4 [8, 8]
0.92510223 -0.0726657 1.3327124 -0.07413753 0.15829104 -0.19484082 -0.21488139 -0.20634593
-0.52492046 -0.44958484 0.06964096 0.351466 1.1185707 -0.1406526 -0.37575626 1.0677979
0.9634757 -0.6049675 0.2624913 1.1688755 -0.730864 0.75911075 0.43773362 -0.5521311
0.176479 -1.1498159 -0.4891066 0.6775938 0.6311499 -0.009066078 -0.5777405 0.6495313
1.027759 -0.31021887 1.1309294 0.9782097 0.8199974 -0.74211764 -0.370189 1.004472
-0.3726632 0.49640292 0.14128824 0.28955048 -0.8586412 1.1742871 0.03853564 0.42642188
0.37368694 -0.25948423 0.33676234 0.24277443 -0.33892164 0.59837484 1.1270396 -0.8218035
-0.098182775 0.086761974 -0.6555674 0.9735083 0.3498767 -0.03453861 1.0627922 0.15352584
00000000: 80d3 6c3f c1d1 94bd 5296 aa3f 6bd5 97bd
00000010: 0c17 223e 5a84 47be de09 5cbe 594c 53be
00000020: 3061 06bf fc2f e6be eb9f 8e3d 5af3 b33e
00000030: 532d 8f3f 3c07 10be 2063 c0be 9aad 883f
00000040: 58a6 763f 26df 1abf 4265 863e b69d 953f
00000050: e719 3bbf 1555 423f 9f1e e03e 7758 0dbf
00000060: e9b6 343e 2b2d 93bf 2e6c fabe ca76 2d3f
00000070: 0a93 213f e389 14bc cde6 13bf af47 263f
00000080: 9b8d 833f 02d5 9ebe 4bc2 903f f36b 7a3f
00000090: 59eb 513f 6cfb 3dbf 6a89 bdbe 8a92 803f
000000a0: b6cd bebe 8628 fe3e ddad 103e f63f 943e
000000b0: e9cf 5bbf 0a4f 963f 8cd7 1d3d f853 da3e
000000c0: e553 bf3e 1edb 84be 1d6c ac3e dc99 783e
000000d0: 2387 adbe 182f 193f d542 903f b761 52bf
000000e0: 0d14 c9bd 43b0 b13d 44d3 27bf d737 793f
000000f0: 0a23 b33e 5c78 0dbd 9309 883f e135 1d3e

l2.bias f4 [8]
0.636373 -0.07215456 0.5748413 0.14838076 0.54514 0.21160541 0.3153697 -0.0072323056
00000000: 57e9 223f c5c5 93bd cd28 133f 20f1 173e
00000010: 4c8e 0b3f 17af 583e 2378 a13e fafc ecbb

l3.weight f4 [7, 8]
0.082932584 -1.2096024 0.6495917 -1.1531028 -0.23883821 0.152058 0.52696985 -0.2541415
0.55952114 -2.1578014 0.21946943 -0.7512655 0.3601174 -0.62957174 -0.09703846 -0.976274
-0.090436846 0.43974915 0.26618275 0.8102703 0.28780717 -0.6584722 -0.6384174 -0.15936556
-0.7005841 -1.2903442 -1.6200373 -0.7512242 -1.0196118 -0.58579093 0.5402941 1.0119854
-0.63137573 -0.673157 -1.0710944 -0.7245308 -0.83083946 1.0863006 -0.9569412 -1.0379853
0.6275276 1.188077 -1.6117095 -0.68339694 0.7100941 -1.2880044 -1.8726542 -2.018857
-1.1035296 1.4793369 -1.4034818 -1.5889868 0.32812017 0.062391512 -1.402725 0.58440757
00000000: 8fd8 a93d 40d4 9abf a44b 263f df98 93bf
00000010: 0192 74be 18b5 1b3e 7fe7 063f d61e 82be
00000020: c73c 0f3f 6b19 0ac0 98bc 603e f052 40bf
00000030: 4f61 b83e 9d2b 21bf 1abc c6bd 18ed 79bf
00000040: f436 b9bd cd26 e13e 1b49 883e e06d 4f3f
00000050: 765b 933e a291 28bf 536f 23bf ba30 23be
00000060: 7b59 33bf 002a a5bf 625d cfbf 3b50 40bf
00000070: a482 82bf 65f6 15bf b750 0a3f bd88 813f
00000080: d7a1 21bf 0454 2cbf 9f19 89bf da7a 39bf
00000090: e5b1 54bf e60b 8b3f 19fa 74bf b4dc 84bf
000000a0: a6a5 203f e812 983f 7f4c cebf 1af3 2ebf
000000b0: bac8 353f 54dd a4bf 22b3 efbf f434 01c0
000000c0: 7540 8dbf e95a bd3f 4ba5 b3bf eb63 cbbf
000000d0: 5eff a73e 3e8e 7f3d 7e8c b3bf bc9b 153f

l3.bias f4 [7]
-0.35747704 -0.14258637 -0.14357689 0.10112764 0.022953272 -0.16001111 -0.017762963
00000000: 3b07 b7be 2902 12be d205 13be 021c cf3d
00000010: 8008 bc3c f4d9 23be a283 91bc
