data.pth (torch, 5279 bytes, 6 tensors)

l1.weight f4 [8, 54]
-0.20404197 -0.42179927 -0.50968957 0.549267 0.3652366 -0.032509 -0.09614173 -0.20033538
-0.57650125 -0.2793622 0.6887895 -0.32564342 0.34968182 -0.41764224 -0.1684104 -0.2119253
0.5686996 0.06310911 0.60074425 0.812332 -0.23714714 0.8876928 0.7662228 0.690615
-0.23389626 0.49691644 0.38919705 -0.3843988 -0.38667905 -0.43553 0.081306025 -0.33086514
-0.118546285 -0.5402902 -0.10548439 -0.22774032 -0.24097101 -0.68082374 -0.21374013 -0.07304406
0.026619116 0.7557293 -0.32580426 -0.21471825 -0.3537581 -0.24881248 -0.89215004 -0.29621664
0.27788556 0.7379527 -0.0878803 0.5137325 -0.11343458 0.15482809 -0.33392665 -0.4360166
0.7185246 0.21778445 0.45651197 0.8778218 0.45640203 0.73483443 0.6372846 0.6011226
0.067983784 -0.36963633 0.3899089 -0.3299037 -0.35208198 -0.1832204 0.0044238335 0.86227864
0.42897218 0.034860652 -0.3483674 0.1884462 0.119135275 -0.08243677 -0.13584568 0.24761261
0.7137439 -0.44472528 0.44565323 -0.52654487 0.50818235 -0.34823313 -0.09183558 0.64519024
-0.22384319 -0.39840597 0.36671072 0.8265057 0.31192032 0.2849984 0.6483894 0.68662816
-0.21921778 -0.22979324 0.014638142 -0.15873115 -0.7457157 -0.28230816 0.3998752 0.78951156
-0.23332892 0.5434731 0.41741273 0.25231642 0.75921667 0.1280349 -0.05336054 0.47350332
0.31093276 0.46148512 0.0046707536 0.16245404 -0.48824337 0.25572276 0.50835526 -0.28410962
-0.51507705 -0.3028001 -0.15173714 -0.06484914 0.4806178 0.45512894 -0.22314408 0.5026011
0.59412456 0.54277 0.50150543 0.35668483 -0.010576021 0.3634638 -0.46310905 -0.35862273
-0.38293484 -0.38704717 0.088770665 -0.45197892 0.6819567 0.041676804 -0.42223564 -0.15921272
-0.29017976 -0.4347113 0.116651006 0.09079046 0.07568578 -0.34697545 -0.28404498 -0.046297994
-0.4015529 -0.438593 1.1327888 0.5324505 0.36303246 -0.6216446 -0.05008107 -0.28233427
-0.026430754 0.39984205 0.071476206 -0.583199 0.5094914 0.29478994 0.7202653 -0.39246476
0.53242105 0.2317044 0.1637452 0.30281186 0.2006036 -0.14487591 0.56602454 -0.12638494
-0.07066658 -0.21373299 0.45633483 -0.42888975 0.48959702 0.64444804 0.16807377 0.711015
0.7934013 0.36723155 0.25528327 0.39037034 0.74963063 -0.43526497 0.45768195 -0.58805245
-0.4460974 0.034245715 0.058749393 0.33032635 -0.1444057 0.034123376 0.45385423 0.35503617
0.43246314 0.29487032 -0.44739264 0.6501852 -0.21122497 -0.04906366 0.26755524 -0.19943123
-0.54558975 0.08593403 0.633204 0.81823224 -0.106122404 0.49298432 0.5527371 0.38100722
0.26636958 0.7401243 0.749497 -0.26155216 -0.3391907 0.2918308 0.4179051 0.35045636
0.5396113 0.3823296 -0.37133032 0.6837707 0.61552876 0.89223975 0.48864987 0.46975768
-0.28923398 0.41044816 -0.16947985 -0.6723202 0.4587223 -0.6726009 -0.6725946 0.007346164
0.5517548 -0.15666778 -0.3076444 0.7971377 0.11836997 0.7111817 0.08925042 0.75423783
-0.08820299 0.4879072 0.7431915 0.5702923 -0.05916491 0.6652671 0.59096605 0.5248904
00000000: 61f0 50be 13f6 d7be 047b 02bf c39c 0c3f
00000010: 4b00 bb3e 2828 05bd f5e5 c4bd b824 4dbe
00000020: 9695 13bf 9008 8fbe 8254 303f bcba a6be
00000030: 7f09 b33e 34d5 d5be c773 2cbe f202 59be
00000040: 4c96 113f 593f 813d 60ca 193f fdf4 4f3f
00000050: b3d6 72be d63f 633f 2d27 443f 25cc 303f
00000060: 8082 6fbe d56b fe3e d644 c73e ebcf c4be
00000070: ccfa c5be cafd debe c683 a63d 2867 a9be
00000080: 65c8 f2bd 7550 0abf 3308 d8bd c234 69be
00000090: 1bc1 76be 774a 2ebf b1de 5abe 2098 95bd
000000a0: 5510 da3c 7a77 413f d1cf a6be 1adf 5bbe
000000b0: c81f b5be b3c8 7ebe f263 64bf b5a9 97be
000000c0: 0447 8e3e 78ea 3c3f 96fa b3bd f983 033f
000000d0: 6450 e8bd 418b 1e3e 6ff8 aabe 913d dfbe
000000e0: 3af1 373f e302 5f3e f0bb e93e eeb8 603f
000000f0: 87ad e93e 1c1e 3c3f 1525 233f 2ce3 193f
00000100: 153b 8b3d f940 bdbe 24a2 c73e 23e9 a8be
00000110: 1744 b4be 219e 3bbe cef5 903b 4bbe 5c3f
00000120: 3ea2 db3e 0bca 0e3d 365d b2be 0af8 403e
00000130: 32fd f33d 9cd4 a8bd 211b 0bbe 298e 7d3e
00000140: ecb7 363f 08b3 e3be a92c e43e a5cb 06bf
00000150: 3d18 023f 9d4b b2be 4b14 bcbd 302b 253f
00000160: 2637 65be defb cbbe 82c1 bb3e e195 533f
00000170: 05b4 9f3e 4feb 913e d9fc 253f ddc6 2f3f
00000180: a07a 60be eb4e 6bbe d1d4 6f3c 6b8a 22be
00000190: 39e7 3ebf b28a 90be 71bc cc3e 6e1d 4a3f
000001a0: c7ed 6ebe 0e21 0b3f 1fb7 d53e 9e2f 813e
000001b0: 065c 423f 951b 033e 9590 5abd 076f f23e
000001c0: 9432 9f3e c747 ec3e 1f0d 993b 5a5a 263e
000001d0: 09fb f9be 18ee 823e 9223 023f d176 91be
000001e0: 17dc 03bf 9d08 9bbe fb60 1bbe a0cf 84bd
000001f0: 8913 f63e a906 e93e e27f 64be 77aa 003f
00000200: 8c18 183f faf2 0a3f a962 003f 659f b63e
00000210: 0c47 2dbc ed17 ba3e a11c edbe 669d b7be
00000220: 0910 c4be 0c2b c6be 65cd b53d c869 e7be
00000230: b794 2e3f 4cb5 2a3d 452f d8be a908 23be
00000240: 7192 94be 7b92 debe b9e6 ee3d 59f0 b93d
00000250: 2501 9b3d c4a6 b1be 586e 91be f7a2 3dbd
00000260: 5798 cdbe 438f e0be 39ff 903f ad4e 083f
00000270: 64df b93e 1a24 1fbf cf21 4dbd 1e8e 90be
00000280: 4f85 d8bc 19b8 cc3e 1e62 923d 884c 15bf
00000290: 076e 023f b5ee 963e 4f63 383f 24f1 c8be
000002a0: bf4c 083f eb43 6d3e d2ac 273e 280a 9b3e
000002b0: 086b 4d3e 5a5a 14be fce6 103f 0e6b 01be
000002c0: a4b9 90bd d2dc 5abe b8a4 e93e 7097 dbbe
000002d0: 76ac fa3e 8cfa 243f 881b 2c3e 1405 363f
000002e0: 591c 4b3f c605 bc3e 7db4 823e 9fde c73e
000002f0: cbe7 3f3f 0ddb debe 4a55 ea3e 9b8a 16bf
00000300: e166 e4be 3c45 0c3d 34a3 703d 8920 a93e
00000310: 16df 13be f4c4 0b3d 955f e83e 4dc7 b53e
00000320: cf6b dd3e 3ef9 963e a610 e5be 8a72 263f
00000330: 5c4b 58be faf6 48bd 00fd 883e b337 4cbe
00000340: c5ab 0bbf 2efe af3d a819 223f ab77 513f
00000350: b456 d9bd 7168 fc3e 2e80 0d3f 6113 c33e
00000360: 9861 883e c978 3d3f 09df 3f3f 2aea 85be
00000370: 67aa adbe d96a 953e a8f7 d53e 046f b33e
00000380: f723 0a3f b5c0 c33e 021f bebe 990b 2f3f
00000390: 4b93 1d3f d369 643f 5130 fa3e 1484 f03e
000003a0: 7a16 94be 4326 d23e 208c 2dbe 2d1d 2cbf
000003b0: a6dd ea3e 932f 2cbf 292f 2cbf 17b8 f03b
000003c0: cd3f 0d3f 856d 20be 9183 9dbe 3711 4c3f
000003d0: f46b f23d 0110 363f edc8 b63d bb15 413f
000003e0: c5a3 b4bd f9ce f93e cc41 3e3f adfe 113f
000003f0: e856 72bd f24e 2a3f 8d49 173f 385f 063f

l1.bias f4 [8]
0.7373447 0.9642885 1.0839056 0.69832987 0.67259437 0.6009423 0.8638977 1.0975631
00000000: 9fc2 3c3f 9cdb 763f 6bbd 8a3f bfc5 323f
00000010: 252f 2c3f 5bd7 193f 6628 5d3f f37c 8c3f

l2.weight f4 [8, 8]
-0.26355213 0.06370294 -0.13631774 -0.13546789 -0.14075926 -0.30040675 -0.35349205 -0.022879839
-1.0426023 0.249039 0.83138317 -0.31298986 1.6413015 0.40311202 1.3961605 0.4343969
-0.1381055 0.5927466 -0.65527487 1.371804 0.4684983 1.5240115 -0.91387415 -0.40163612
-0.8941608 -1.1361815 0.49999243 -0.25642604 1.1946526 -0.29928598 1.233685 -0.25116938
0.20410669 0.32218793 -1.1856767 0.883749 1.2957426 1.1406599 0.3692537 -1.1863185
1.1034123 1.6096954 1.7300642 1.1019272 -0.612546 0.06301377 0.25425985 1.5983852
0.14325216 0.15660913 -0.32153952 -0.17546481 -0.32944986 0.043715645 -0.300455 -0.0011257352
0.62789756 -0.51670384 0.6488631 0.42426732 -1.3267112 0.62193406 0.030237194 0.37305716
00000000: 4ef0 86be b076 823d e196 0bbe 18b8 0abe
00000010: 3223 10be eace 99be e9fc b4be 806e bbbc
00000020: fe73 85bf 1404 7f3e 87d5 543f 3540 a0be
00000030: 2b16 d23f b364 ce3e 63b5 b23f 4569 de3e
00000040: 876b 0dbe 3ebe 173f 18c0 27bf 4697 af3f
00000050: 02df ef3e cf12 c33f a8f3 69bf 40a3 cdbe
00000060: b9e7 64bf 656e 91bf 02ff ff3e 464a 83be
00000070: 60ea 983f 033c 99be 64e9 9d3f 4699 80be
00000080: 5801 513e d1f5 a43e 41c4 97bf 603d 623f
00000090: e5da a53f 2501 923f d20e bd3e 49d9 97bf
000000a0: 9d3c 8d3f 800a ce3f be72 dd3f f30b 8d3f
000000b0: d1cf 1cbf 5d0d 813d 592e 823e e397 cc3f
000000c0: b2b0 123e 255e 203e d4a0 a4be 0cad 33be
000000d0: a7ad a8be 2d0f 333d 3dd5 99be 688d 93ba
000000e0: e5bd 203f b446 04bf e41b 263f 9139 d93e
000000f0: acd1 a9bf 1237 1f3f feb3 f73c 5901 bf3e

l2.bias f4 [8]
-0.34010115 0.88163525 0.3416067 0.26630473 0.6187228 0.64155555 -0.3105164 -0.1695579
00000000: bd21 aebe d9b2 613f 13e7 ae3e 1859 883e
00000010: 9e64 1e3f fc3c 243f 01fc 9ebe 96a0 2dbe

l3.weight f4 [7, 8]
-0.22047412 0.15905523 0.68591255 -0.070732675 0.60638005 -1.4996672 -0.20956847 -0.093588874
-0.2868334 0.46634495 -1.0352007 0.8342846 0.48554605 -1.4588702 0.065356806 -1.2281955
0.23779532 0.37952173 -1.2239242 -2.229838 -0.836376 0.7396709 0.2799911 -1.925144
0.023577213 -1.0994185 -0.033960443 -0.72672534 -0.8233481 0.62829894 -0.12019848 1.6635085
-0.11853017 -1.8563261 0.609097 -0.57266116 0.40364224 0.46723494 -0.20680316 -0.7877474
0.06203574 0.09939539 0.58539015 -1.2406665 0.27366784 -0.109057985 0.1533681 -1.8415794
0.34983888 0.49494618 -0.4205845 0.76171815 -1.0640876 -0.20748258 -0.040659588 -0.5900572
00000000: f8c3 61be 60df 223e f797 2f3f 4bdc 90bd
00000010: b93b 1b3f 18f5 bfbf 1e99 56be 86ab bfbd
00000020: d4db 92be c4c4 ee3e 7581 84bf ad93 553f
00000030: 7e99 f83e 42bc babf cad9 853d 8335 9dbf
00000040: 9e80 733e ac50 c23e 8ca9 9cbf aab5 0ec0
00000050: bd1c 56bf 125b 3d3f fe5a 8f3e 1e6b f6bf
00000060: 0025 c13c bfb9 8cbf 1b1a 0bbd ac0a 3abf
00000070: f1c6 52bf 33d8 203f 9f2a f6bd d9ed d43f
00000080: f2bf f2bd 189c edbf c8ed 1b3f ec99 12bf
00000090: 32aa ce3e 6b39 ef3e 35c4 53be d0a9 49bf
000000a0: 3019 7e3d cf8f cb3d 21dc 153f 29ce 9ebf
000000b0: 311e 8c3e cb59 dfbd 870c 1d3e e0b8 ebbf
000000c0: 151e b33e 9669 fd3e da56 d7be f6ff 423f
000000d0: 0634 88bf 5076 54be ab8a 26bd fd0d 17bf

l3.bias f4 [7]
-0.32484204 -0.27184117 0.2598424 0.26047498 -0.4876542 -0.31551856 0.15563327
00000000: b251 a6be c42e 8bbe 100a 853e fa5c 853e
00000010: d0ad f9be a68b a1be 545e 1f3e
