data.pth (torch, 5279 bytes, 6 tensors)

l1.weight f4 [8, 54]
000000 dd c3 d9 3e 7f 03 4c be 36 77 e5 3e d4 51 e5 3e
       0.42532244 -0.19923209 0.44817513 0.44788992
000010 55 ef e3 3e a9 69 3c bf 6e 52 f6 3e 06 3d e3 3e
       0.44518533 -0.73598725 0.48109764 0.44382495
000020 91 68 f2 3e ab a0 f5 3e 56 58 a6 3e 55 9f 37 3d
       0.47345403 0.47974142 0.3248927 0.044829685
000030 de fe 3a be 8c 5c 93 bd be 80 91 be 61 c2 0a 3c
       -0.18261287 -0.07195386 -0.28418535 0.008469195
000040 b4 98 aa 3e af 0b 3a bf 25 56 c3 bd fa 52 0e 3f
       0.33319628 -0.7267408 -0.09537915 0.5559536
000050 8d ab de 3e d4 70 cb 3e 14 41 e7 3e c3 08 51 3e
       0.43490258 0.3973452 0.45166838 0.20413499
000060 f9 7d e8 3e 72 f5 a7 3e d5 47 a2 be 6e cf b0 be
       0.4540861 0.32804447 -0.31695428 -0.34533256
000070 c2 ec 6d be 8d 0b 94 be a6 50 ee be 0a f5 50 be
       -0.23234847 -0.28915063 -0.46545905 -0.20405975
000080 b5 48 bf 3e 25 96 ed 3e 20 53 54 be 26 4e 9d 3d
       0.3736016 0.46403614 -0.20734835 0.07680921
000090 23 c0 ec be 9f 72 10 3f 59 c3 de 3e 2a 31 c0 3e
       -0.4624034 0.564249 0.43508413 0.3753751
0000a0 3a 35 e1 be 1a 9c a0 be 08 9b 06 3c 07 86 36 bd
       -0.4398592 -0.31369096 0.008215673 -0.044561412
0000b0 01 ad a4 3e c8 bf 8a be 95 d9 70 3f 35 75 b0 3e
       0.32163242 -0.27099442 0.94082004 0.34464422
0000c0 20 f6 84 3e 1a 25 dc be 6e e2 6b 3d 44 b3 96 bd
       0.25969028 -0.42997056 0.057588987 -0.07358411
0000d0 fe 59 c5 3e c6 02 72 3e 8f 7a 29 be a0 c5 e4 be
       0.3854522 0.2363387 -0.16550659 -0.44682026
0000e0 a5 05 c6 3e 72 ee d0 3e 12 19 2f 3f e2 dd 91 3e
       0.3867618 0.4080692 0.6839763 0.28489596
0000f0 b1 ae 3d 3e 72 62 41 3e f0 70 b9 3d fe fd c7 3d
       0.1852367 0.1888521 0.09054744 0.09765242
000100 f1 78 dd 3e c6 cd ab be ce 8b 87 3e 71 96 a8 be
       0.43256333 -0.3355543 0.2647385 -0.32927278
000110 9d 90 6e be 63 12 7e be 0b 08 23 3f 49 08 77 3e
       -0.23297353 -0.24811701 0.6368415 0.24124254
000120 db 3c 92 3e d2 83 3e 3f c8 de b0 be 39 5b 35 3f
       0.28562054 0.7441989 -0.3454497 0.7084232
000130 ae 4b 54 3f eb 1a 8d 3e 0e f0 93 bd 39 88 0f 3f
       0.8292798 0.275596 -0.07223521 0.56067234
000140 86 26 cb 3e ac cf 29 bf 0a d5 57 3e 1b 94 df be
       0.3967783 -0.6633251 0.21077362 -0.43667683
000150 ac fb b1 3d dd 4c 0f bf 3a aa b1 3d e8 f4 a6 3e
       0.08690581 -0.5597666 0.08675046 0.32608724
000160 91 6c 8d be cd db b3 be 0d 9c 9b 3e c1 8c 8c 3c
       -0.27621892 -0.35128632 0.30392495 0.01715696
000170 01 9f cc 3e a9 04 85 3e 15 2a fd 3d 99 df 1b 3f
       0.3996506 0.25980118 0.12361542 0.6088806
000180 35 3f ac be 25 ff 21 be 56 78 93 bd dd a3 b3 be
       -0.33641973 -0.15819986 -0.07200687 -0.35085955
000190 25 0b 16 bf 37 1f be be bb 63 de 3e 69 5d 18 3f
       -0.58610755 -0.3713319 0.43435463 0.5951753
0001a0 08 1b 8f be 6d 33 87 3e 67 7a 60 3e b1 26 9f 3e
       -0.2795031 0.26406422 0.21921693 0.31084207
0001b0 f4 c7 ac bd 9d 3f dc be 47 1b ac 3e 01 96 4f be
       -0.084365755 -0.43017283 0.3361456 -0.20272066
0001c0 91 f1 2f bd 30 99 00 3f 94 52 f6 3e 62 27 63 3e
       -0.042954985 0.50233746 0.48109877 0.22182992
0001d0 49 5a fd 3e 31 97 cd 3e 7d 77 67 be a9 a7 21 3f
       0.49482945 0.40154412 -0.22604175 0.63146454
0001e0 87 bb 11 3f ec 2c 49 3f 79 78 71 bc f7 b9 e0 3e
       0.5692677 0.7858417 -0.014738196 0.4389188
0001f0 1d fb 37 be a5 d8 f4 3e 93 ee b8 3e 07 b3 cf be
       -0.17966886 0.47821537 0.36119518 -0.40566275
000200 a7 49 2e be 86 ac cf be ad a2 cf be ff 3f c6 bd
       -0.17020284 -0.40561312 -0.405538 -0.09680175
000210 81 97 0a 3f 98 f6 67 be 92 dd e7 3e 1e a8 9f be
       0.54137427 -0.22652662 0.45286232 -0.3118295
000220 96 5a d2 3e 80 f4 eb be be c7 72 3d d4 45 4e 3f
       0.41084737 -0.46084976 0.05927252 0.805753
000230 a0 e0 8b bb 91 2a ab 3e fd 1e b7 bd 5d 77 d9 3e
       -0.0042687207 0.33430913 -0.089414574 0.4247388
000240 ca 53 da 3e f5 37 f9 3e 34 0e 01 3f e8 38 d9 3e
       0.4264205 0.48675504 0.504123 0.4242623
000250 b8 dc e5 3d b8 ce 19 3f 4d a6 0f 3f 15 78 f0 bd
       0.112237394 0.6008105 0.5611313 -0.11741654
000260 98 ae 1a 3f d1 af 3d be b5 42 21 bf c4 f9 cc bd
       0.6042266 -0.185241 -0.6299241 -0.100085765
000270 6b 22 d1 3d ce 16 1d 3f e0 70 cd 3e d8 0a ee 3e
       0.10211643 0.6136292 0.4012518 0.46492648
000280 23 79 ab 3e ba ac a1 3e ea 16 92 be 82 85 eb be
       0.33490857 0.31577092 -0.28533107 -0.46000296
000290 5e 34 9c be 75 ee ab 3e a1 fa 11 3f 10 ac 84 be
       -0.30508703 0.33580366 0.57023054 -0.25912523
0002a0 58 aa 10 be 09 5c 6a be e0 fa 8b be 45 bb ae bd
       -0.14127481 -0.22886671 -0.2733984 -0.085318126
0002b0 be 91 ea 3e 51 c0 3e 3f f5 6e 0b 3f 7e 3a 5c 3f
       0.45814317 0.745122 0.5446618 0.8602675
0002c0 3f 8e 6c be 9a 1e 17 3f 5a 5b fd 3e aa ac 6d be
       -0.23101138 0.5903107 0.49483758 -0.23210397
0002d0 93 aa 15 3f 41 50 21 3f 48 a9 fa bd bf 21 39 3f
       0.584634 0.6301308 -0.12239319 0.7231712
0002e0 ac 3b 43 3f cc 2b 70 3f b9 44 0b 3f f8 cd 91 3e
       0.7626293 0.9381683 0.5440174 0.28477454
0002f0 34 6b 10 3f ec f6 f0 be 18 00 ab 3e 09 cf 78 be
       0.5641358 -0.47063386 0.3339851 -0.24297728
000300 24 30 03 be 61 fd 38 3f 70 0b 26 bc 84 f7 a8 bd
       -0.12811333 0.72261626 -0.010134563 -0.08250335
000310 6c f6 65 bd c9 84 1a 3f 0d 7d 8c 3e 85 f2 63 be
       -0.05614321 0.60358864 0.27439156 -0.22260483
000320 65 65 2c bd 0b 05 2d be f2 bb 69 bd f8 41 3b 3f
       -0.042088885 -0.16896455 -0.057064004 0.73147535
000330 c8 81 1a 3f 18 74 fa bc dd 2c 1e 3f d5 e4 d9 bc
       0.6035428 -0.030572936 0.61787206 -0.026598373
000340 44 af 54 bf 13 92 82 bd ec 77 a6 3e 0c de 0b 3f
       -0.83079934 -0.06375518 0.32513368 0.5463569
000350 4a 7a 1f 3f 87 40 0d 3f d8 17 50 be 5b 0c 15 3e
       0.62295973 0.55176586 -0.20321596 0.14555494
000360 29 2c ba 3e 95 a6 44 3f af 9f 7f be fe 1c a3 be
       0.36361817 0.76816684 -0.24963258 -0.31858057
000370 44 b1 0d bf 36 eb 81 3f d1 29 a5 bd 07 6c 29 be
       -0.5534861 1.0149906 -0.080646165 -0.16545115
000380 80 77 25 bd 04 91 d2 be 86 8f fe be 45 d5 0f 3f
       -0.040397167 -0.41126263 -0.49718875 0.561848
000390 ca e8 91 3e 71 bc 13 3f f5 71 36 3f 4d 98 a5 3e
       0.28497916 0.57709414 0.71267635 0.3234276
0003a0 0a b8 fa be 20 36 80 3f 5b 7e c5 be d6 7b 5a bf
       -0.48968536 1.0016518 -0.38572964 -0.8534521
0003b0 93 b7 05 3f 75 5d 5a bf 01 c8 3e bf 96 17 71 bd
       0.5223324 -0.85298854 -0.7452393 -0.058860384
0003c0 c1 41 40 3e d9 f7 e5 be cb 97 15 bf 1a 32 42 3f
       0.18775083 -0.44915655 -0.5843474 0.758577
0003d0 2e f4 fa bd 50 f2 16 3f c9 71 27 3f 3b 3a 01 3f
       -0.12253605 0.5896349 0.65408 0.5047948
0003e0 b5 0a 68 3e a0 eb 1c be 1b 62 47 3f 0b d9 e9 3e
       0.22660334 -0.15324259 0.7788407 0.45673403
0003f0 66 f1 f8 bd 2b 78 92 3d 23 8f 52 3c 54 57 c1 bc
       -0.12155418 0.071518265 0.012851509 -0.023601212

l1.bias f4 [8]
000000 a3 97 4e 3f 44 cb 82 3f 48 ae cf 3e 67 ae 54 3f
       0.8070013 1.0218282 0.40562654 0.83078617
000010 66 b9 88 3f 58 9f 28 3f 70 09 18 3f 03 ae d6 3e
       1.0681579 0.6586814 0.593894 0.41929635

l2.weight f4 [8, 8]
000000 c2 80 27 3f c8 09 3e bf 61 b8 5d 3f 4d 10 54 3e
       0.65430844 -0.74233675 0.86609465 0.20709343
000010 1f c2 82 3e 6f fa ec 3e 76 0b 0f 3e 6f 30 90 3f
       0.25538728 0.46284816 0.13969216 1.1264781
000020 32 87 7c 3f c2 da f6 3e de 85 02 bf eb f5 67 be
       0.9864379 0.48213774 -0.50985515 -0.22652404
000030 73 d5 34 be 49 e8 7f 3f f3 81 5f be 15 85 97 3f
       -0.1765955 0.99963814 -0.21826915 1.1837488
000040 05 25 d7 3b 06 14 7d be 95 e6 d8 be 47 e0 81 3e
       0.0065656924 -0.2471467 -0.4236342 0.25366423
000050 ca 27 d9 3f 0d 02 9c 3f 3b 17 d6 3f 71 66 da be
       1.6965268 1.2188126 1.6725839 -0.42656282
000060 d3 5b b4 be 26 3b e0 bd 3d 18 94 3e ac 5c a5 bd
       -0.35226306 -0.10948782 0.28924742 -0.080743164
000070 69 0c a9 be 78 ce 2b bd ea 37 88 be b0 47 98 3c
       -0.3301728 -0.04194495 -0.2660516 0.01858887
000080 c0 0d f7 3d 80 da 30 be 20 d3 4d 3d 75 d8 25 be
       0.120631695 -0.17270851 0.050250173 -0.16195853
000090 c6 03 93 be 14 38 83 3d a0 3f 25 be 01 49 38 be
       -0.28713816 0.064071804 -0.16137552 -0.17996599
0000a0 08 1a 99 3e b4 68 36 3f 0f 30 90 bd c4 dd ca 3f
       0.29902673 0.71253514 -0.070404164 1.5848927
0000b0 c1 f3 87 bf b4 20 53 3f 16 9e 62 3f 5e e2 85 bf
       -1.0621263 0.82471776 0.8852247 -1.0459707
0000c0 3f f3 62 3e 2e bf b1 3f a8 f4 99 3f 4c 22 86 3f
       0.22163104 1.3886468 1.2027788 1.0479217
0000d0 7a ff 39 3f 34 9d 83 bf d0 fc 8d bf af 0e 0f 3d
       0.7265545 -1.028235 -1.1092777 0.034926113
0000e0 61 ae 8e 3f 32 76 5c 3f f3 10 13 bf 65 74 96 be
       1.1146966 0.8611785 -0.5744774 -0.29385677
0000f0 e0 2d 0b bf 3c 72 79 3f 33 bb 89 3e f3 40 59 3f
       -0.54366875 0.9743993 0.26900634 0.8486473

l2.bias f4 [8]
000000 3d 16 12 bf 4e 53 7a 3e cd be 75 3f e8 94 8c be
       -0.5706518 0.2444584 0.95994264 -0.27457356
000010 38 63 8a be d8 ed 28 3e 1f 66 31 3f a8 65 bb 3e
       -0.27028823 0.1649698 0.6929645 0.36600995

l3.weight f4 [7, 8]
000000 48 57 fa 3e 76 bb 63 bf 0b 86 63 3e db 90 a5 3e
       0.48894715 -0.8895792 0.22219102 0.32337078
000010 43 e0 8b 3e a1 a5 dc 3e 45 e3 64 bf 07 04 3e bf
       0.27319536 0.43095115 -0.89409286 -0.74224895
000020 36 5e cf be f6 c0 be bf 33 3d 8b 3f 23 c4 34 be
       -0.40501565 -1.4902637 1.0878052 -0.17652945
000030 14 0d 9c 3d 34 bc 7f bf 88 d4 e9 bf 91 35 13 bf
       0.07619682 -0.9989655 -1.8267984 -0.5750361
000040 6d 0f ab bf f5 2e 77 bf 88 d5 b9 3e 18 de 4b 3d
       -1.3364083 -0.96556026 0.36295724 0.049772352
000050 6a b9 5e 3e aa cc 97 bf 1c 93 34 3f 36 e0 e7 be
       0.21750417 -1.1859334 0.7053697 -0.45288247
000060 ab 72 b1 bf 1a b4 97 3e 23 a1 1d be b4 65 92 3d
       -1.3863119 0.29629594 -0.153935 0.071483046
000070 2f 46 95 be 37 a9 55 3f 57 b9 1b bf 73 37 29 3f
       -0.29155108 0.83461326 -0.6082968 0.66100234
000080 4c ca 59 bf 93 e9 98 bf 8d 84 c4 bf 78 df d2 3d
       -0.85074306 -1.1946281 -1.5352951 0.102965295
000090 fa 81 7e 3e 6c 5a 1e 3f 11 30 1e 3f 4f b4 5d be
       0.2485427 0.6185672 0.61792094 -0.21650814
0000a0 62 0c 39 3f e2 51 dc 3e e5 7e 9a bf a3 5e 8c 3e
       0.7228452 0.43031222 -1.2069975 0.27415952
0000b0 f1 16 a7 3e d9 66 41 bf cc dc 73 3e 26 f2 cb 3e
       0.3263469 -0.7554756 0.23814696 0.39833182
0000c0 fa f8 b5 3e 6b fe 35 3f 55 37 4d 3e a2 af 1c 3e
       0.35541517 0.71091336 0.20040639 0.15301374
0000d0 18 2a 99 3d f0 4b 70 bf a9 f1 aa bf 38 26 0e 3f
       0.07478732 -0.9386587 -1.3354999 0.5552707

l3.bias f4 [7]
000000 95 4b d8 be d0 6a 70 3c c5 84 18 3f e7 97 8f be
       -0.42245165 0.014673904 0.5957759 -0.2804558
000010 f9 15 91 be 19 cd 98 be 2b 6b c8 be
       -0.28337076 -0.29843977 -0.39144263
